Train_CNN_Digital-Readout_Version_6.3.0-Small-v1.tflite (tflite, 765980 bytes, 12 tensors)

sequential/conv2d/BiasAdd/ReadVariableOp f4 [32]
0	0xbd56b72d	-0.052420784
1	0x3cf1599b	0.029461673
2	0xbd52d060	-0.051468253
3	0xbe02bc1e	-0.12767074
4	0xba75e497	-0.0009380071
5	0xbe11b528	-0.14229262
6	0xbd8066f8	-0.0626964
7	0xbdb000cc	-0.08593902
8	0xbd96c08a	-0.07360943
9	0xbdec6735	-0.11543123
10	0xbd2e39be	-0.042535536
11	0xbdca26ca	-0.0987068
12	0xbd9418c6	-0.07231288
13	0xbdcb0642	-0.09913303
14	0xbd8c0b5c	-0.06838104
15	0x3d205dbd	0.039151896
16	0xbe193198	-0.14960325
17	0xbdd25794	-0.102706105
18	0xbd4e5a2d	-0.050378967
19	0xbe005b49	-0.12534823
20	0xbd9a983c	-0.07548568
21	0xbd0bbe7c	-0.034117207
22	0xbe269218	-0.16266668
23	0xbe05f4d1	-0.13081671
24	0xbda3d94f	-0.08000433
25	0xbd4c5b2e	-0.049891643
26	0xbc96250d	-0.018328214
27	0xbd7aeff4	-0.061263993
28	0xbdcc0fe2	-0.09963967
29	0xbd94b08a	-0.07260235
30	0xbdd50193	-0.10400691
31	0xbdbd7d8b	-0.09252461

sequential/dense/BiasAdd/ReadVariableOp f4 [256]
0	0x3d2b3441	0.04179788
1	0xbce43900	-0.027859211
2	0x3d28e59b	0.041234594
3	0x3d1a1e18	0.037626356
4	0x3d14e232	0.03634853
5	0x3d4d800c	0.050170943
6	0x3cdddc4a	0.027082581
7	0x3d8ff6fc	0.070295304
8	0xbd0665c9	-0.032811914
9	0xbc77ae53	-0.015117246
10	0x3ca9182b	0.020641407
11	0xbd6d535a	-0.05794082
12	0x3da44701	0.080213554
13	0xbbeedb02	-0.0072892914
14	0x3d328939	0.043587897
15	0xbd2c5c12	-0.042079993
16	0xbbc4e42e	-0.0060086465
17	0xbd342df9	-0.043989155
18	0x3d23f3a3	0.040027272
19	0x3c5bfeb7	0.013427428
20	0x3d9fccec	0.078027576
21	0x3d5c1592	0.05373151
22	0x3c37c954	0.011217434
23	0x3d3d1b3f	0.046168562
24	0xbd57bc46	-0.052669786
25	0x39cf4cf6	0.00039539457
26	0xbc116361	-0.008873791
27	0x3b2287c1	0.0024800154
28	0xbd1a10c8	-0.03761366
29	0x3de2448d	0.11048231
30	0x3aa3b45d	0.0012489666
31	0x3d09e3c0	0.033664465
32	0x3db74629	0.08948929
33	0xbd59c601	-0.053167347
34	0xbc534219	-0.012894177
35	0xbc52f38d	-0.01287545
36	0x3b9df3b2	0.0048203105
37	0xbd6147c5	-0.055000085
38	0xbd006ee7	-0.031355765
39	0x3c6e5f2a	0.014549056
40	0x3d5c12f9	0.05372903
41	0x3d9a0a95	0.075215496
42	0x3d25e68b	0.040503066
43	0xbda09686	-0.0784121
44	0x3d765d3d	0.060147513
45	0xbd9449b0	-0.07240617
46	0xbc932d50	-0.017965943
47	0x3d93c0d9	0.07214517
48	0x3dec255d	0.11530564
49	0xbd168e18	-0.036756605
50	0xbbfe2c39	-0.0077567366
51	0x3c8ff217	0.017571492
52	0x3d1c8c52	0.038219757
53	0xba63e5ca	-0.0008693604
54	0x3d29dd99	0.041471098
55	0x3ddc90a0	0.107697725
56	0x3d98053d	0.07422874
57	0xbc8322c0	-0.016007781
58	0x3b6ca729	0.0036110377
59	0x3dabf003	0.08395388
60	0xbcda00b4	-0.026611663
61	0x3db90162	0.09033467
62	0xbcee86b8	-0.029116973
63	0x3dcc9b0d	0.09990511
64	0xbd6427d1	-0.055702034
65	0xbc80c1a7	-0.01571734
66	0x3c64a4c7	0.013955302
67	0x3cdfd445	0.027322898
68	0x3d79932b	0.060931366
69	0xbd023df0	-0.03179735
70	0x3d8ebb16	0.069692776
71	0xbc609407	-0.0137071675
72	0xbc5ab0e0	-0.013347834
73	0x3dff5bd2	0.12468685
74	0x3d16f394	0.036853388
75	0x3d96d4db	0.07364818
76	0xbcd84bf5	-0.026403407
77	0xbcf6f9cd	-0.030148411
78	0xbca4ca0d	-0.020115877
79	0x3d3b543c	0.04573463
80	0xbc6d241e	-0.014473943
81	0x3d1128c6	0.035439275
82	0x3d61650c	0.055028006
83	0x3d90f5be	0.070781216
84	0x3d228b40	0.03968358
85	0xbd228625	-0.03967871
86	0xbbb32dc1	-0.005468101
87	0x3d434eb9	0.047682498
88	0x3c7e6c64	0.015528772
89	0x3bbc536a	0.0057472484
90	0x3b1130d6	0.0022154353
91	0xbd19629d	-0.03744756
92	0xbc225d4c	-0.009909939
93	0x3d227598	0.039662927
94	0x3d82b169	0.063814946
95	0x3c9cf0b6	0.019157749
96	0xbb2aa305	-0.0026037109
97	0xbbfa2778	-0.0076340996
98	0x3dcb2af8	0.09920305
99	0x3cfddbf5	0.030988673
100	0x3c86b535	0.016443828
101	0x3d0247ed	0.031806875
102	0x3d8aaafb	0.06770893
103	0x3d2b23b1	0.041782085
104	0x3bdd0b83	0.006745757
105	0x3b465579	0.0030263348
106	0x3d9a6360	0.075384855
107	0xbc238e0c	-0.009982597
108	0x3c3c7dc5	0.011504595
109	0x3d4d44cc	0.050114438
110	0xbcb300d0	-0.021850973
111	0x3c892918	0.016743228
112	0x3ce754ca	0.028238673
113	0xbc7c479b	-0.015397931
114	0xbcff4942	-0.031162862
115	0xbc7ee342	-0.015557112
116	0xbd952440	-0.07282305
117	0xbd2e2eca	-0.04252509
118	0xbbf84c17	-0.00757743
119	0x3cbd59aa	0.023114044
120	0xbd36ca4b	-0.044626515
121	0x3c9827f9	0.018573748
122	0x3cb9e8e5	0.02269406
123	0xbcae1253	-0.021248972
124	0x3d5728ea	0.052529253
125	0xbd40ab65	-0.047038455
126	0xbc0291cb	-0.00796933
127	0xbd9c1ffe	-0.076232895
128	0xbbdf9203	-0.006822826
129	0x3c8bc9d1	0.017064007
130	0x3d01028d	0.031496573
131	0xbd42d33d	-0.047564734
132	0x3b5d6f7e	0.0033788378
133	0x3d5c783d	0.053825606
134	0x3b6a611a	0.0035763443
135	0xbaa40087	-0.0012512364
136	0x38dcdefa	0.0001053195
137	0x3d47572b	0.048667114
138	0xbd2bdaf0	-0.041956842
139	0x3dc566a0	0.09638715
140	0x3d0fa786	0.035071872
141	0xbd8889aa	-0.06666882
142	0xbcb94546	-0.02261604
143	0xbd01dc6c	-0.03170435
144	0x3dccefd8	0.10006684
145	0x3d1944c9	0.037419114
146	0xbcdd1c4c	-0.026991032
147	0x3d4587f7	0.04822537
148	0x3de3e6cf	0.111280076
149	0xbc5b4685	-0.013383512
150	0xbae8cd17	-0.0017761317
151	0xbcfc0d76	-0.030768137
152	0x3d7cbbe2	0.061702617
153	0x3d8df459	0.06931371
154	0xbd58df1e	-0.052947156
155	0x3cc2e5f3	0.023791289
156	0xbccb2edb	-0.024802616
157	0x3b00b974	0.0019641789
158	0x3d26851f	0.040654298
159	0x3b7e2d40	0.0038784295
160	0xbd0da500	-0.034581184
161	0xbcd40b66	-0.025884341
162	0xbc67acb7	-0.0141402995
163	0xbcf53723	-0.029933518
164	0x3cdccc5e	0.026952919
165	0x3d0acf59	0.03388915
166	0x3d3e8c55	0.04652055
167	0xbd4837c2	-0.0488813
168	0xbd989b30	-0.07451475
169	0xbc827815	-0.0159264
170	0x3d842579	0.0645246
171	0xbd343e7f	-0.044004913
172	0x3b828d9b	0.003984166
173	0x3dd9b434	0.10630074
174	0xbc430b21	-0.011904509
175	0xbd3e7092	-0.046494074
176	0x3d4c3b8d	0.04986148
177	0xbd6ad74c	-0.05733423
178	0x3b032620	0.0020011738
179	0x3d29dfd1	0.041473214
180	0xbafe2ade	-0.0019391438
181	0x3d7787f3	0.060432386
182	0x3a9ce89f	0.0011971182
183	0xbc7d66a0	-0.015466362
184	0x3d4a29bd	0.04935621
185	0x3d9e2d07	0.07723432
186	0xbad02e0b	-0.0015882862
187	0xbd4c1fe2	-0.049835093
188	0x3d111cba	0.035427786
189	0xbdbd6411	-0.09247602
190	0xbd977790	-0.073958516
191	0xbd13188b	-0.035912078
192	0xbcf1a3a4	-0.029496975
193	0xbca86e5e	-0.02056044
194	0x3d81d83e	0.06340073
195	0x3dcafc33	0.099113844
196	0x3bb30bd0	0.0054640546
197	0x3c6301f9	0.013855451
198	0xbd5f473d	-0.054511297
199	0xbc4a8dc4	-0.012362901
200	0x3d331c1d	0.043727983
201	0x3b3835c0	0.002810821
202	0xbd018753	-0.031623196
203	0xbb9c9cc3	-0.0047794296
204	0x3ca09cb3	0.01960597
205	0xbd248917	-0.0401698
206	0xbd91d83a	-0.0712132
207	0x3b1c9375	0.0023891602
208	0xbb95c1a7	-0.0045702043
209	0xbd367982	-0.044549473
210	0xbc5eea4c	-0.013605665
211	0xbcb75c71	-0.022382947
212	0xbcd44f95	-0.025916854
213	0xbc868dcf	-0.016425041
214	0xbd18d00f	-0.037307795
215	0x3a1d2593	0.00059946737
216	0x3b161e29	0.002290616
217	0x3d4124c2	0.047154196
218	0xbd46440d	-0.048404742
219	0xbd0f1545	-0.034932394
220	0x3b322b4a	0.0027186447
221	0x3de1bff1	0.11022938
222	0x3d977704	0.07395747
223	0x3c29e011	0.010368363
224	0x3d08c921	0.033394936
225	0x3c6e7445	0.014554088
226	0x3c649d48	0.013953514
227	0xbca2cbda	-0.019872595
228	0x3d90ba92	0.070668355
229	0xbd313a16	-0.043268286
230	0x3cd272ce	0.025689509
231	0xbbc1b993	-0.0059120147
232	0xba15b12b	-0.0005710299
233	0x3d6a8fb5	0.057265956
234	0x3c740166	0.014892912
235	0xbce4ec4d	-0.027944708
236	0x3d9ac835	0.07557718
237	0xbc8d7015	-0.017265359
238	0x3ca6af71	0.020347329
239	0x3d2f70aa	0.042832054
240	0xbc232cd6	-0.00995942
241	0x3d0e6623	0.034765374
242	0xbd9bcb49	-0.07607133
243	0xbcc3ce4d	-0.023902083
244	0xbce866f5	-0.028369406
245	0xbda8c999	-0.08241577
246	0xbd2bd73f	-0.04195332
247	0xbcc5acbd	-0.02413022
248	0xbc379a1a	-0.011206174
249	0xbd4ddb0d	-0.05025773
250	0x3d50de1c	0.05099307
251	0x3cbe4e42	0.023230676
252	0xbc065478	-0.00819885
253	0xbcb4e91f	-0.022083817
254	0x3c225d56	0.009909948
255	0x3e096533	0.1341751

sequential/dense_1/BiasAdd/ReadVariableOp f4 [11]
0	0xbe024b00	-0.12723923
1	0xbd9bc973	-0.07606783
2	0xbdbc965b	-0.092083655
3	0xbdc5027f	-0.09619617
4	0xbdad2c5f	-0.08455729
5	0xbdab3662	-0.08359982
6	0xbdb1c3c6	-0.08679919
7	0xbdba7d5b	-0.09105941
8	0xbd610c94	-0.054943636
9	0xbde5dbb3	-0.11223545
10	0xbdb010c9	-0.085969515

sequential/batch_normalization/FusedBatchNormV3 f4 [3]
0	0x3c418aa6	0.0118128415
1	0x3c4f426a	0.012650112
2	0x3c309171	0.010776863

sequential/batch_normalization/FusedBatchNormV31 f4 [3]
0	0xbfeacf34	-1.8344483
1	0xbfe3cf76	-1.7797687
2	0xbfd3da3d	-1.6550976

sequential/dense/MatMul f4 [256, 512]
0	0x3dc187dc	0.09449741
1	0xbd3ce9bf	-0.046121355
2	0x3d5a7263	0.053331744
3	0x3d861a1a	0.06547947
4	0x3dc39070	0.09549034
5	0xbdcf973c	-0.101362675
6	0x3c361118	0.011112474
7	0xbd5345ed	-0.05158036
8	0x3d9f17db	0.07768222
9	0xbcbfa2a8	-0.02339299
10	0x3d4a4521	0.049382333
11	0xbc4fe16c	-0.012688022
12	0xbd6a13e3	-0.05714787
13	0xbd07fd34	-0.033200458
14	0xbcd41fbb	-0.025894037
15	0xbd2b6dee	-0.041852884
16	0x3d989164	0.07449606
17	0x3da2cbba	0.07949014
18	0xbc9d4724	-0.019198962
19	0xbc567ddf	-0.013091533
20	0x3d9295b5	0.071574606
21	0x3d1871a2	0.037217744
22	0xbcd49b74	-0.025953032
23	0x3c813fc8	0.015777484
24	0x3b9dbbe4	0.004813658
25	0xbd94517f	-0.07242107
26	0xbc9bae48	-0.019004002
27	0x3d1cf39f	0.038318273
28	0x3df91bc7	0.12163501
29	0x3db7d9a4	0.089770585
30	0x3d23b652	0.039968796
31	0xbe31ae16	-0.17351565
32	0xbc492dc6	-0.01227898
33	0x3d2e1cdf	0.042508002
34	0xbc965cd4	-0.01835481
35	0xbacb5822	-0.0015513937
36	0x3dea6476	0.11444943
37	0x3dd1c830	0.10243261
38	0x3d0a04cb	0.033695977
39	0xbd1be2c1	-0.038058046
40	0xbddaae5b	-0.10677787
41	0xbd33d369	-0.04390279
42	0x3d87b4aa	0.06626256
43	0xbe00833c	-0.12550062
44	0x3d12db01	0.03585339
45	0x3d41e402	0.047336586
46	0xbd3e17b4	-0.046409324
47	0x3e1de957	0.15421043
48	0xbd28539d	-0.041095365
49	0x3ce0884a	0.027408738
50	0x3d83de8c	0.06438932
51	0x3c6392dd	0.013889995
52	0x3d84ab10	0.0647794
53	0xbd8eab36	-0.0696625
54	0x3d014ebb	0.031569224
55	0x3d9df96c	0.07713589
56	0x3d81b22f	0.06332814
57	0x3d5ff4f8	0.05467698
58	0x3a0fc777	0.00054847397
59	0x3d31225e	0.043245666
60	0x3e0dc379	0.13844098
61	0xbbd91709	-0.0066250605
62	0xbd889262	-0.06668545
63	0x3d684ba8	0.056712776
64	0xbd5e73e3	-0.054309737
65	0xbd987586	-0.07444291
66	0x3da08c25	0.078392304
67	0x3d7efc7a	0.0622525
68	0xbdee67df	-0.116409056
69	0x3c8c6a36	0.01714049
70	0xbae8ef0a	-0.0017771435
71	0xbdbeb37a	-0.09311576
72	0x3b7afdb9	0.0038298203
73	0x3c489e42	0.012244763
74	0xbdbbb5f4	-0.09165564
75	0x3ccd5e63	0.025069421
76	0xbd7ce796	-0.061744295
77	0xbcd1aa1b	-0.025593808
78	0xbbfe2f10	-0.007757075
79	0xbd452da0	-0.048139215
80	0xbd7bcbc7	-0.061473634
81	0x3cf06850	0.029346615
82	0xbd4130d3	-0.047165703
83	0x3c9fc0b6	0.019501071
84	0xbdcb7708	-0.09934813
85	0xbda28c78	-0.079369485
86	0xbd655159	-0.055985782
87	0xbc57dc29	-0.013175049
88	0x3de2e618	0.11079043
89	0xbdd8745a	-0.10569067
90	0xbcb95a0e	-0.02262595
91	0xba3fe6a8	-0.0007320442
92	0xb9e48339	-0.00043585317
93	0xbe17329e	-0.14765403
94	0x3dad5fc1	0.08465529
95	0xbd95266a	-0.072827175
96	0xbcb62147	-0.022232665
97	0xbde617dd	-0.1123502
98	0xbd9ebdc8	-0.07751042
99	0x3cb65662	0.022257987
100	0xbdaaaecd	-0.08334122
101	0xbb45cb88	-0.0030181129
102	0x3d3aa79c	0.04557
103	0x3c6d915e	0.01449999
104	0xbd43ff7b	-0.047851067
105	0xbde93fdd	-0.11389134
106	0x3db1918e	0.086703405
107	0xbd3b5c5b	-0.045742374
108	0x3d821939	0.06352467
109	0xbd9a5019	-0.07534809
110	0xbdb32e34	-0.08749047
111	0x3d4d7f3c	0.05017017
112	0x3d298361	0.04138506
113	0x3d89bc20	0.06725335
114	0xbda089b3	-0.07838764
115	0x3dbbf521	0.09177614
116	0xbd925b0d	-0.07146273
117	0xbddfa32b	-0.10919794
118	0x3d79f1a8	0.061021477
119	0xbcea747a	-0.028619993
120	0xbc88044c	-0.016603611
121	0x3d5a292c	0.05326192
122	0x3cd238b3	0.025661802
123	0x3d696ed9	0.05699048
124	0xbe042578	-0.12904918
125	0xbdd7f12b	-0.10544046
126	0xbd03495b	-0.03205238
127	0x3d0ba5c4	0.034093633
128	0x3d283231	0.04106349
129	0x3c353eb4	0.011062313
130	0x3d13fd57	0.036130276
131	0xbd66ecba	-0.056378104
132	0x3d47ae96	0.048750482
133	0xbc176067	-0.009239293
134	0xbc856046	-0.016281258
135	0x3cb8fd2b	0.022581657
136	0x3bf775c1	0.007551879
137	0xbd1f2e0e	-0.03886228
138	0x3ccacd54	0.024756111
139	0xbdc04a10	-0.09389126
140	0x3d191b33	0.037379455
141	0xbda59647	-0.08085304
142	0xbcc01e09	-0.023451822
143	0x3d865cd9	0.06560678
144	0xbd0c9f39	-0.034331534
145	0x3d8e84ef	0.06958949
146	0x3d81fe37	0.06347316
147	0x3cb8c892	0.022556577
148	0x3cf0b2a0	0.02938205
149	0xbc21a748	-0.009866543
150	0x3df1e5f1	0.11811436
151	0xbc979890	-0.018505365
152	0xbb265704	-0.0025381455
153	0xbdc3da59	-0.09563131
154	0x3d3d5b92	0.046229906
155	0x3d567b46	0.052363656
156	0x3e058880	0.13040352
157	0x3d9cccbd	0.07656238
158	0x3e061b3b	0.13096325
159	0xbaf10871	-0.0018389357
160	0x3e137972	0.14401796
161	0x3ce026d2	0.027362261
162	0xba98db23	-0.0011661988
163	0x3cfdb691	0.030970844
164	0x3df3c040	0.11901903
165	0x3c4673fe	0.012112616
166	0xbe11b1b2	-0.14227942
167	0x3e158775	0.14602454
168	0x3d386f85	0.04502823
169	0x3cbcc40c	0.023042701
170	0x3b8a3773	0.004218036
171	0x3bf2c6e5	0.007408964
172	0xbcedabcc	-0.029012583
173	0x3bddd83e	0.006770163
174	0x3c2d29be	0.010569034
175	0xbdc159c9	-0.09440953
176	0x3e272ec7	0.16326438
177	0x3c92f07e	0.017936941
178	0x3e1e40e1	0.15454437
179	0xbd86fbcc	-0.06590995
180	0x3c8b5251	0.017007025
181	0x3dc89bd4	0.09795347
182	0x3c9a1fcf	0.018813996
183	0xbdb97300	-0.09055138
184	0x3c6ffca7	0.014647639
185	0x3dd81872	0.105515376
186	0x3ccb15de	0.0247907
187	0x3e29bcb4	0.16575891
188	0xbcafb961	-0.0214507
189	0x3db94b2a	0.090475395
190	0x3bda2779	0.0066575375
191	0x3d4aab30	0.049479663
192	0xbdf1fa6a	-0.11815341
193	0xbc0199fc	-0.007910248
194	0xbe06a360	-0.1314826
195	0x3dad8221	0.08472086
196	0x3da09f7e	0.07842921
197	0x3dd5de86	0.104428336
198	0x3c899ae1	0.016797485
199	0xbd46a116	-0.048493467
200	0xbde9c0bf	-0.114137165
201	0x3d113225	0.035448212
202	0xbbede135	-0.007259513
203	0xbcfce462	-0.03087062
204	0x3d1be3a1	0.03805888
205	0xbd6037c0	-0.054740667
206	0x3ddc61cf	0.10760843
207	0xbdb27b42	-0.08714916
208	0xbb2ce187	-0.0026379542
209	0x3cd692ae	0.02619299
210	0xbe0e3b3b	-0.13889782
211	0xbda52266	-0.080632016
212	0x3cb7f00e	0.022453334
213	0x3c605979	0.013693207
214	0xbab50a1c	-0.0013812217
215	0x3dcbdc69	0.09954149
216	0x3d182d84	0.037152782
217	0xb9dfedae	-0.0004271096
218	0xbdcf5180	-0.10122967
219	0xbdeb6b0d	-0.11495028
220	0x3d4117bb	0.04714177
221	0xbcac70f5	-0.021049956
222	0xbcec95b9	-0.028879987
223	0xbd31755b	-0.04332481
224	0x3c82c4ab	0.01596292
225	0x3db5902c	0.08865389
226	0xbc50c27e	-0.012741683
227	0x3d5b9f07	0.053618457
228	0xbdf80e6c	-0.12112126
229	0x3d9ffccb	0.07811888
230	0x3d0cf3a1	0.03441203
231	0x3cb6cc07	0.022314085
232	0xbd4a4168	-0.049378783
233	0x3db74255	0.08948199
234	0xbdfe6e5f	-0.12423395
235	0xbc89f5f2	-0.016840909
236	0x3c80577a	0.015666712
237	0xbca108cc	-0.019657515
238	0x3c74a8b0	0.014932796
239	0x3df6d43b	0.120521985
240	0xbd70a48e	-0.05875068
241	0xbd5a1efa	-0.053252198
242	0xbd0945eb	-0.033513945
243	0x3ca7d0c7	0.020485295
244	0xbd2ed530	-0.04268378
245	0x3cf02e94	0.029319085
246	0xbe272a10	-0.1632464
247	0x3de97f63	0.1140125
248	0x3d4d3e0b	0.050107997
249	0x3d8e5e92	0.069516316
250	0x3de76e42	0.11300327
251	0xbc9b5e7c	-0.018965952
252	0xbc86cc5d	-0.01645487
253	0xbdb9111c	-0.090364665
254	0xbc6125f7	-0.013741962
255	0x3c84bcc7	0.016203297

sequential/dense_1/MatMul f4 [11, 256]
0	0xbc2c016d	-0.010498387
1	0x3d9cb1a8	0.07651073
2	0xbea5b6a3	-0.32365903
3	0xbe85d0f3	-0.26135978
4	0xbe85ab18	-0.26107097
5	0xbe6452be	-0.22297189
6	0xbe7a88ab	-0.24466197
7	0xbdd6df5a	-0.1049182
8	0xbda04860	-0.078263044
9	0x3d61d15a	0.055131294
10	0xbe30d158	-0.17267358
11	0xbbb5aa96	-0.005544017
12	0xbe9bf823	-0.3046275
13	0xbd915689	-0.070965834
14	0x3d430dae	0.047620468
15	0xbe815340	-0.25258827
16	0xbe753625	-0.23946436
17	0x3d1b3f70	0.037902296
18	0xbe3cc6b0	-0.18435168
19	0x3881c2fb	6.187517e-05
20	0xbe70e7d7	-0.2352594
21	0xbe757c02	-0.23973086
22	0x3b8dab72	0.0043234164
23	0x3a919857	0.0011108023
24	0xbe250c42	-0.16117957
25	0xbe2d203b	-0.16906826
26	0xbdd23f4a	-0.10265978
27	0x3c8d0924	0.017216273
28	0xbe39234f	-0.18079875
29	0xbeb7a4fd	-0.35868064
30	0xbace00e1	-0.0015716815
31	0xbd83d052	-0.06436218
32	0xbe9fe8ef	-0.31232402
33	0xbde08803	-0.10963442
34	0xbe97584a	-0.29559547
35	0x3db00d4f	0.085962884
36	0xbe0db9d5	-0.1384042
37	0x3d5d9b81	0.05410338
38	0xbca25730	-0.019816965
39	0xbe6b6c7c	-0.22990602
40	0xbe8a0f2d	-0.26964703
41	0xbe94af62	-0.29040056
42	0xbe833461	-0.256259
43	0xbdc10ba4	-0.094260484
44	0xbe8150ee	-0.25257057
45	0x3c9d131b	0.01917415
46	0xbeb42e33	-0.35191497
47	0xbe883ac5	-0.26607338
48	0xbe4e0578	-0.20119274
49	0x3d5ddfcb	0.054168504
50	0xbe2b0f56	-0.16705069
51	0xbee63fb8	-0.4497049
52	0xbea0481f	-0.31305024
53	0xbcb48ec4	-0.022040732
54	0x3d432df0	0.04765123
55	0xbe8628ec	-0.26203096
56	0xbe735044	-0.23761088
57	0x3d6c338d	0.05766635
58	0x3d9fe554	0.07807413
59	0xbe43a898	-0.19107282
60	0xbe850dcc	-0.2598709
61	0x3d65faf9	0.05614755
62	0xbe50b5e1	-0.20381881
63	0xbe952982	-0.2913323
64	0xbdeed83e	-0.11662339
65	0xbe1f46a1	-0.15554287
66	0xbe8772d2	-0.26454788
67	0xbe87727f	-0.2645454
68	0xbe1cfc91	-0.15330721
69	0xbe778626	-0.24172267
70	0xbea65451	-0.32486203
71	0xbd4ded8b	-0.050275367
72	0x3d28af84	0.04118301
73	0xbe485166	-0.19562301
74	0x3a154bad	0.00056951755
75	0xbe16dd17	-0.14732777
76	0xbe9cb1f6	-0.30604523
77	0xbe696f19	-0.22796287
78	0xbe3db9c3	-0.18527894
79	0xbe03ae5e	-0.12859485
80	0xbe8f05f2	-0.27934223
81	0xbcb0ff63	-0.021606153
82	0xbe842824	-0.25811875
83	0xbeb9d81d	-0.36297694
84	0xbe42299d	-0.18961187
85	0x3cda45f0	0.026644677
86	0xbe2e6b6a	-0.17033163
87	0xbdc59816	-0.09648149
88	0xbd5c8936	-0.053841792
89	0x3cdbf6a5	0.026851008
90	0xbd327e9f	-0.043577787
91	0xbe2322e1	-0.15931274
92	0xbe3c551b	-0.1839184
93	0x3b6b8bdb	0.0035941515
94	0xbdf26da0	-0.118373156
95	0xbc158ebc	-0.009128269
96	0xbe70bc41	-0.23509313
97	0xbd74ec27	-0.059795525
98	0xbe8067d5	-0.25079218
99	0xbdcfc87f	-0.101456635
100	0xbe56a148	-0.20959961
101	0xbe693998	-0.22775877
102	0xbe825c51	-0.25461057
103	0x3ba6273d	0.0050705955
104	0x3dcf577a	0.10124107
105	0x3d0c9822	0.034324773
106	0xbc651971	-0.0139831165
107	0xbd84d8c0	-0.06486654
108	0xbe8e31cf	-0.27772376
109	0xbd215578	-0.03938815
110	0xbcbb2e7a	-0.02284931
111	0xbbda3dc8	-0.006660197
112	0x3b2625c1	0.0025352093
113	0xbe93f356	-0.28896588
114	0xb821cd4c	-3.857659e-05
115	0xbe4fcb1b	-0.20292322
116	0x3d90d1cd	0.07071266
117	0xbc5a6ce9	-0.01333163
118	0xbde8284a	-0.113358095
119	0xbe1bdbbb	-0.1522054
120	0xbe0692e0	-0.13141966
121	0xbe843176	-0.25818986
122	0xbe9b5408	-0.30337548
123	0xbcf6d441	-0.030130507
124	0xbe702388	-0.23451054
125	0x3ca86cf2	0.020559762
126	0xbc5126f0	-0.012765631
127	0xbe5f536e	-0.2180917
128	0xbe89c80c	-0.26910436
129	0xbe8752b6	-0.2643029
130	0xbe220ce1	-0.15825225
131	0xbda7a640	-0.081860065
132	0x3d2d3b8d	0.04229312
133	0xbe477b08	-0.19480526
134	0xbe97cfae	-0.29650635
135	0xbe406b7b	-0.18791
136	0xbdb277b8	-0.08714241
137	0xbb253f50	-0.002521474
138	0xbe377af4	-0.17917997
139	0xbe82eb0d	-0.25569955
140	0xbe73ff2f	-0.23827814
141	0x3d2c4c97	0.04206523
142	0xbe7541b7	-0.2395085
143	0x3d02806d	0.031860758
144	0xbcc03fa0	-0.023467839
145	0xbebe4c2c	-0.3716749
146	0xbdbc3cbf	-0.09191274
147	0xbe047774	-0.12936193
148	0xbe798560	-0.24367285
149	0x3d20a0ba	0.03921578
150	0xbe71ccbb	-0.23613255
151	0xbe09ab77	-0.13444315
152	0xbe88586d	-0.26629964
153	0xbedbe7f9	-0.4295042
154	0xbe25f2f7	-0.16205965
155	0xbe04b819	-0.12960853
156	0xbdc59ee5	-0.09649447
157	0x3d52eceb	0.051495474
158	0xbea9b53c	-0.33146083
159	0xbe37f560	-0.17964697
160	0x3b0e1a3f	0.0021683124
161	0xbd9d7a09	-0.07689292
162	0xbe3a5ad2	-0.18198708
163	0xbe32fb47	-0.17478667
164	0xbdd6bac8	-0.104848444
165	0xbe3f6146	-0.1868945
166	0xbec0890a	-0.37604553
167	0xbe9741c0	-0.2954235
168	0xbc6d2c41	-0.014475883
169	0xbddc6392	-0.10761179
170	0xbe42e878	-0.19033992
171	0xbc565b6c	-0.01308332
172	0xbe661cde	-0.2247195
173	0xbe48582a	-0.19564882
174	0xbe896b74	-0.26839793
175	0xbe0bd648	-0.1365596
176	0xbeaf09fb	-0.34187302
177	0xbc341399	-0.010991001
178	0xbda8d705	-0.08244137
179	0xbe814082	-0.25244528
180	0xbe5134fb	-0.20430367
181	0xbeb65fb0	-0.3561988
182	0xbc396f0a	-0.011317978
183	0xbe641422	-0.22273305
184	0xbdb08b07	-0.08620267
185	0xbb110618	-0.0022128876
186	0xbe7736bf	-0.24141978
187	0xbca4dd53	-0.020125067
188	0xbd293680	-0.04131174
189	0xbd76d89d	-0.060265172
190	0xbe190bad	-0.1494586
191	0x3d625271	0.055254404
192	0xbe2fdf85	-0.1717511
193	0xbe1fb601	-0.15596773
194	0xbe977a4a	-0.29585487
195	0xbe2bc6bf	-0.16775034
196	0xbdca3f2d	-0.09875331
197	0xbea23e91	-0.3168836
198	0xbd379463	-0.044819247
199	0xbe87256f	-0.26395747
200	0xbe07e928	-0.13272536
201	0xbe549279	-0.20759
202	0x3d3fd35d	0.04683243
203	0xbda8e000	-0.082458496
204	0xbe1720c8	-0.14758599
205	0xbe93efad	-0.28893796
206	0xbc998600	-0.018740654
207	0xbe2bd393	-0.16779928
208	0xbe1eb033	-0.15496902
209	0xbe760e08	-0.2402879
210	0xbdea1f15	-0.1143171
211	0xbe1eb064	-0.15496975
212	0xbeaf035d	-0.34182253
213	0xbd5601ec	-0.052247927
214	0xbd8b1607	-0.06791311
215	0x3db03f0b	0.086057745
216	0xbd606652	-0.05478508
217	0xbef07402	-0.46963507
218	0xbe85b2dd	-0.26113024
219	0xbd3ea469	-0.046543512
220	0xbbd473c7	-0.0064835283
221	0xbe70362a	-0.23458162
222	0xbe523cdf	-0.20531033
223	0xbc6c10f5	-0.01440834
224	0xbeb41ae6	-0.35176772
225	0xbe88e184	-0.26734555
226	0xbe7fee16	-0.24993166
227	0xbe40b966	-0.18820724
228	0xbe342c5b	-0.17595045
229	0xbe8810d0	-0.26575327
230	0xbea96b70	-0.3308978
231	0xbd31b49d	-0.043385137
232	0xbe8e95fe	-0.2784881
233	0xbe79521d	-0.2434773
234	0xbd4de2c9	-0.050265107
235	0xbe40a873	-0.18814258
236	0x3cfef40d	0.031122232
237	0x3d29b2de	0.041430347
238	0xba22130d	-0.00061826484
239	0xbd6cf695	-0.057852346
240	0xbe477daa	-0.19481531
241	0xbe674f44	-0.22588831
242	0x3c50c3ff	0.012742042
243	0xbe9afff6	-0.30273408
244	0x3d27fea6	0.041014336
245	0x3d95a862	0.07307507
246	0xbe3afe0b	-0.18260972
247	0xbd86e64d	-0.06586895
248	0x3d50848b	0.050907653
249	0xbe851105	-0.25989547
250	0xbafa80b8	-0.0019111848
251	0x3c7daf54	0.015483696
252	0xbd92616a	-0.071474865
253	0xbe1319a4	-0.1436525
254	0xbe13f141	-0.144475
255	0xbe5cce06	-0.21562967

sequential/conv2d/Conv2D f4 [32, 3, 3, 3]
0	0x3d950b29	0.07277519
1	0xbc2453c1	-0.010029734
2	0x3b6c1a71	0.0036026502
3	0xbda099be	-0.07841824
4	0xbda5ca6d	-0.0809525
5	0x3d56dfe9	0.05245963
6	0xbd8dc8ee	-0.0692309
7	0xbdefb880	-0.117051125
8	0xbdc61738	-0.096723974
9	0x3db89ce1	0.09014297
10	0x3dd1e338	0.10248417
11	0x3e1630ed	0.14667101
12	0x3de34697	0.11097448
13	0x3e273099	0.16327132
14	0xbd521280	-0.051287174
15	0x3cac4649	0.021029608
16	0x3ddf8017	0.10913103
17	0x3be09950	0.006854214
18	0xbde5cb51	-0.1122042
19	0x3c7511dd	0.014957872
20	0xbe04a9ed	-0.12955447
21	0x3dd6187d	0.104538895
22	0x3d4947fb	0.04914091
23	0xbde5906c	-0.11209187
24	0x3e071fe9	0.13195767
25	0x3d06a26f	0.032869752
26	0xbd12ac31	-0.035808746
27	0x3d9a9e66	0.07549743
28	0x3e1750f1	0.1477697
29	0xbdbfd9f6	-0.093677446
30	0x3872b89f	5.7869238e-05
31	0xbe03f363	-0.12885813
32	0xbd12fda4	-0.03588642
33	0xbe3b92fa	-0.18317786
34	0xbbf03ff6	-0.0073318435
35	0xbc5393c9	-0.012913653
36	0x3c2b0708	0.010438688
37	0x3de20800	0.11036682
38	0x3e19eace	0.15030977
39	0xbb9fad40	-0.004872948
40	0x3dbdc8b8	0.092668
41	0xbd6b305d	-0.05741917
42	0x3cf28713	0.029605424
43	0xbd9cbd03	-0.076532386
44	0x3da0b85c	0.07847664
45	0xbe019190	-0.12653184
46	0xbb6461c3	-0.003484831
47	0xbd64752f	-0.055775817
48	0xbcbd3947	-0.023098601
49	0x3ce74e40	0.028235555
50	0x3dea8c6b	0.11452564
51	0x3c983496	0.018579762
52	0x3dbbc0c9	0.0916763
53	0x3e00e47f	0.12587164
54	0xbd4c3f30	-0.049864948
55	0x3dae5af3	0.08513441
56	0x3d95d357	0.073157005
57	0xbd2aef86	-0.041732334
58	0xbdbaa020	-0.09112573
59	0xbd954efb	-0.07290455
60	0xbd54c06d	-0.051941324
61	0xbdcda02a	-0.100403145
62	0xbe3aee6a	-0.1825501
63	0x3dc6d2f4	0.09708205
64	0x3d404cd9	0.046948288
65	0x3e2ae52e	0.16688988
66	0x3cb8fba5	0.022580931
67	0x3dee5963	0.11638143
68	0x3e11aafc	0.14225382
69	0x3dc1d6d4	0.09464803
70	0x3dd8b5a3	0.105815195
71	0x3e1c6bd9	0.15275516
72	0xbe2f838f	-0.1714003
73	0xbcefba60	-0.029263675
74	0xbd99c4ed	-0.07508264
75	0xbd782a51	-0.06058723
76	0x3db087a0	0.086196184
77	0xbd649720	-0.055808187
78	0x3bf4f949	0.007476006
79	0xbd1b84d2	-0.037968464
80	0x3d5496a9	0.051901493
81	0xbe073707	-0.13204585
82	0xbe495690	-0.19661927
83	0xbda4337f	-0.080176346
84	0xbd6d156b	-0.057881754
85	0xbca562a4	-0.020188637
86	0xbbb8bf3d	-0.0056380318
87	0x3df9d2d8	0.121984184
88	0x3d580782	0.052741535
89	0xbd12b932	-0.035821147
90	0xbd8c8b74	-0.06862536
91	0xbe6c5ac1	-0.23081495
92	0x3b0bb44a	0.0021317177
93	0x3e38ee32	0.18059614
94	0xbc3f481f	-0.01167491
95	0x3df99d3c	0.12188193
96	0x3b35d517	0.002774542
97	0x3e5b9833	0.21444778
98	0x3d8b5077	0.06802457
99	0xbdd36656	-0.103222534
100	0xbd91d20d	-0.07120142
101	0xbdaa9689	-0.083294936
102	0x3cac746d	0.02105161
103	0x3dff72f6	0.12473099
104	0x3dae1660	0.085003614
105	0x3e1c073b	0.15237133
106	0x3e2dbfff	0.16967772
107	0xbd8047d9	-0.06263704
108	0x3c4f7be5	0.012663816
109	0xbe4cd646	-0.20003614
110	0xbe3ad6da	-0.18246022
111	0xbd41dd0f	-0.04732996
112	0x3d86295e	0.06550859
113	0xbd558e8a	-0.05213789
114	0x3d693e90	0.05694443
115	0x3d9a1d87	0.07525163
116	0x3d13cd78	0.036084622
117	0x3c874a38	0.016514882
118	0xbd33a475	-0.04385801
119	0xbe2b8ad1	-0.16752173
120	0x3df35a05	0.11882404
121	0x3d846f29	0.064665146
122	0x3ddfeaf8	0.109334886
123	0x3c1f1bc5	0.009711211
124	0xbd058f2e	-0.03260725
125	0x3c42bf29	0.011886396
126	0x3e062fea	0.13104215
127	0x3def480d	0.116836645
128	0xbdb22553	-0.08698525
129	0x3d96a6d1	0.073560365
130	0x3db0fd15	0.086420216
131	0xbd30779c	-0.04308282
132	0xbdc77ac0	-0.097402096
133	0x3dd4eb07	0.103963904
134	0xbcd66774	-0.026172377
135	0x3c878c89	0.016546505
136	0xbe0ca598	-0.13735044
137	0xbc3b315b	-0.0114253415
138	0xbda763d6	-0.08173339
139	0x3c323962	0.010877939
140	0x3d24dcc9	0.04024962
141	0xbd8f5909	-0.06999404
142	0x3d9ca117	0.07647913
143	0x3e54fd73	0.20799808
144	0x3db39c0b	0.08769997
145	0x3c6f03dd	0.014588323
146	0xbd6c5ffc	-0.057708725
147	0xbcfbfd41	-0.03076041
148	0xbe1c1c0f	-0.15245079
149	0xbc71c472	-0.014756309
150	0xbd328df5	-0.043592412
151	0x3dfcfb0f	0.12352573
152	0x3dea2a7a	0.11433883
153	0x3c28bec7	0.010299391
154	0xbda071c0	-0.07834196
155	0xbd830544	-0.06397489
156	0x3d2bcdc0	0.041944265
157	0xbe078a72	-0.13236406
158	0xbd990396	-0.07471387
159	0x3d1356ed	0.03597157
160	0x3e346f89	0.17620672
161	0xbd9c23ed	-0.0762404
162	0x3c972cb2	0.01845393
163	0x3e7ea810	0.24868798
164	0xbd06aa56	-0.03287729
165	0xbd406ecb	-0.04698066
166	0x3e1a7215	0.15082581
167	0xbd02f1bc	-0.031968817
168	0x3c8d5d05	0.01725627
169	0xbe41d08a	-0.18927208
170	0xbe0aa34d	-0.13538857
171	0x3dd43bea	0.1036299
172	0x3df33b2b	0.1187652
173	0x3cf56878	0.029957041
174	0xbb7e2303	-0.0038778193
175	0xbd9b61ea	-0.07587035
176	0x3e17d8c3	0.14828782
177	0xbe01ae41	-0.12664129
178	0xbe0868f1	-0.13321282
179	0xbe1616b9	-0.14657106
180	0x3c3dd21e	0.01158574
181	0x3ded71e2	0.11593987
182	0xbdd3bc2c	-0.10338625
183	0xbd922c84	-0.07137397
184	0xbd787d57	-0.06066641
185	0x3e0d727e	0.13813207
186	0xbd158dce	-0.03651219
187	0x3cc4a040	0.024002194
188	0xbd08519e	-0.03328096
189	0x3ced6ee0	0.028983533
190	0xbbf0b242	-0.0073454687
191	0x3d25e6b2	0.04050321
192	0xbe00374e	-0.12521097
193	0xbd9afd2b	-0.07567819
194	0xbd77403c	-0.060363993
195	0xbd6d7d32	-0.057980724
196	0xbc9162d7	-0.017747326
197	0x3d014c57	0.031566944
198	0xbc21c335	-0.009873201
199	0xbd04957d	-0.032369126
200	0x3e4839b3	0.1955326
201	0xbd0a01bd	-0.033693064
202	0xbdbd164d	-0.09232769
203	0x3ddd3c51	0.1080252
204	0xbd248871	-0.040169183
205	0xbdc5c1a9	-0.09656078
206	0xbe0cb922	-0.13742498
207	0x3e473b02	0.19456103
208	0x3ddfc18b	0.10925587
209	0x3e3d8d5d	0.18510957
210	0x3d5a8abd	0.053354967
211	0xbda78311	-0.08179296
212	0x3b1c5f8e	0.0023860666
213	0xbc87f96b	-0.016598424
214	0xbe49ea77	-0.19718347
215	0x3d68eadc	0.056864604
216	0x3de53490	0.11191666
217	0x3bd6ebff	0.0065588946
218	0x3e0bb2fa	0.13642493
219	0xbda7caff	-0.08193015
220	0x3da05220	0.07828164
221	0xbd9a512c	-0.075350136
222	0x3d40dce8	0.047085673
223	0xbbfc2cfd	-0.0076957927
224	0xbdb73c64	-0.089470655
225	0xbda15597	-0.07877653
226	0x3e27c103	0.16382222
227	0x3d1fe7c8	0.039039403
228	0xbdc4f756	-0.09617488
229	0xbd36ba21	-0.0446111
230	0xbe244c42	-0.16044715
231	0xbd938a0b	-0.07204064
232	0x3d096198	0.03354034
233	0xbc86132a	-0.01636656
234	0x3da035d1	0.07822765
235	0xbd2fc0f6	-0.04290863
236	0x3e11f292	0.1425269
237	0xbd81f839	-0.06346173
238	0xbe097e45	-0.13427074
239	0x3b33c82c	0.0027432544
240	0x3da02ce7	0.078210644
241	0xbc846089	-0.016159313
242	0x3da3f637	0.08005946
243	0xbd16cbc2	-0.036815412
244	0x3e13ceec	0.14434403
245	0x3cfdc026	0.030975413
246	0x3e13f2b3	0.14448051
247	0x3dbca4f4	0.0921115
248	0xbd8a4d80	-0.06753063
249	0x3e081520	0.13289309
250	0x3da0a03f	0.078430645
251	0xbc0d36c0	-0.00861901
252	0xbde06e1e	-0.10958503
253	0xbd1a3c87	-0.03765538
254	0xbd689161	-0.05677927
255	0xbd875b20	-0.066091776

sequential/conv2d_1/Conv2D f4 [64, 3, 3, 32]
0	0x3d39cb77	0.045360055
1	0xbd546e9c	-0.051863298
2	0x3c3f6bbe	0.011683403
3	0x3d98dca4	0.07463959
4	0xbd1aa15d	-0.037751544
5	0x3e577ac3	0.21042924
6	0x3c08ae46	0.008342331
7	0xbd2c4247	-0.042055395
8	0x3d13db42	0.036097772
9	0xbd0fbb59	-0.035090778
10	0xbdf18c34	-0.1179432
11	0xbd037bd4	-0.032100514
12	0xbd13ca78	-0.03608176
13	0x3e03f68d	0.1288702
14	0x3c88095b	0.016606024
15	0xbe192168	-0.1495415
16	0xbd0f59d9	-0.034997795
17	0xbc9cd98b	-0.019146701
18	0x3c1c7f57	0.009551845
19	0x3ca987f6	0.020694714
20	0x3d25036a	0.04028646
21	0xbdb4f403	-0.08835604
22	0xbce1f87e	-0.02758431
23	0x3ad6ef07	0.001639814
24	0xbd6227cd	-0.05521374
25	0xbda6c8d2	-0.08143772
26	0xbd68b409	-0.05681232
27	0xbd4b5098	-0.049637407
28	0x3d63a855	0.055580456
29	0xbd379145	-0.044816274
30	0xbd60feb2	-0.054930396
31	0x3c546c7c	0.012965318
32	0x3cba2b85	0.02272583
33	0xbda2e113	-0.07953086
34	0xbc9dbfc3	-0.019256478
35	0x3e149485	0.1450978
36	0x3de4ee1b	0.111782275
37	0x3e244d8b	0.16045205
38	0x3da67e8e	0.08129607
39	0xbe0e8e75	-0.1392153
40	0x3cc63352	0.024194393
41	0x3d8500a7	0.06494265
42	0xbd8c2c07	-0.06844335
43	0xbc3cbd76	-0.01151978
44	0xbdc04d52	-0.09389748
45	0x3cc4dc1f	0.024030743
46	0x3d30824d	0.043093015
47	0xbd8cadbf	-0.06869077
48	0xbdfc0cd6	-0.12307136
49	0x3bd05b44	0.006358536
50	0x3cc7a74a	0.024371762
51	0xbded7a1b	-0.115955554
52	0x3d7e6dca	0.06211642
53	0xbcc8d514	-0.024515666
54	0xbd31fc0e	-0.04345327
55	0xbcdef3b2	-0.027215812
56	0x3726cd8f	9.942231e-06
57	0xbcf81ee3	-0.030288165
58	0xbcd1e2bb	-0.025620809
59	0x3d945682	0.072430626
60	0xbd31ea1c	-0.043436155
61	0xbe10e6be	-0.14150521
62	0xbe0b7b78	-0.13621318
63	0xbd73ce30	-0.059522808
64	0xbca598ca	-0.020214457
65	0xbd5c179c	-0.053733453
66	0x3d9b44d6	0.07581489
67	0xbc8b8e77	-0.017035706
68	0x3dc2806b	0.0949715
69	0x3c76dd3b	0.015067394
70	0x3e32d17a	0.17462721
71	0x3d4b8ca3	0.04969467
72	0x3e377152	0.17914322
73	0x3de58745	0.11207441
74	0x3e037b12	0.12839916
75	0x3d7370fe	0.05943393
76	0x3db325fa	0.08747478
77	0xbda5067d	-0.08057878
78	0x3cc0106e	0.023445334
79	0x3ca2edc4	0.019888766
80	0xbdf2e851	-0.11860717
81	0x3e06943b	0.13142483
82	0xbe0e2ba7	-0.1388384
83	0xbe12935e	-0.14314029
84	0x3d9d508a	0.07681377
85	0x3c93a35d	0.018022234
86	0xbc8c18cd	-0.01710167
87	0xbca3e884	-0.020008333
88	0xbd9a58dc	-0.0753648
89	0xbbbc2a0f	-0.0057423185
90	0xbd2bc237	-0.041933265
91	0x3db5930c	0.088659376
92	0x3ca6cb65	0.020360658
93	0xbdd9504b	-0.10611018
94	0x3d83b4ff	0.06431007
95	0x3d586285	0.05282833
96	0xbe33ad4b	-0.17546575
97	0xbc5a0de0	-0.013308972
98	0xbe06d437	-0.13166891
99	0xbcfb32d3	-0.030663883
100	0xbd1e68b1	-0.03867406
101	0x3d1ae694	0.037817553
102	0xbc949d00	-0.01814127
103	0x3d4f549b	0.050617795
104	0xbd262a34	-0.04056759
105	0x3d880bde	0.066428885
106	0xbd85c787	-0.065321974
107	0xbd852b3d	-0.06502388
108	0xbcf5271d	-0.029925877
109	0xbddb1b77	-0.10698598
110	0x3c150e96	0.009097716
111	0xbdb66b32	-0.08907165
112	0x3d8c84cf	0.06861269
113	0x3c344ce8	0.011004664
114	0x3d95dc02	0.07317354
115	0x3d0eb388	0.034839183
116	0x3dab6470	0.08368766
117	0xbe0f1ea3	-0.1397653
118	0xbe00010e	-0.12500402
119	0xbdeb0c2c	-0.11476931
120	0xbe0ab26e	-0.13544628
121	0x3dc618e0	0.09672713
122	0x3d84349b	0.06455346
123	0xbdd7cc76	-0.10537045
124	0xbd0f1952	-0.034936257
125	0x3d9203b9	0.07129616
126	0x3da2270b	0.07917603
127	0xbdac2c71	-0.08406914
128	0xb7e989c0	-2.783991e-05
129	0xbde8ea70	-0.113728404
130	0xbd4206c6	-0.04736974
131	0x3e369394	0.17829734
132	0x3e14f074	0.1454485
133	0x3df79e09	0.1209069
134	0xbc49dd47	-0.012320823
135	0xbb551508	-0.0032513756
136	0xbdc6968d	-0.09696684
137	0x3deddefe	0.11614798
138	0xbd8e443e	-0.0694661
139	0xbd8908d6	-0.066911384
140	0x3b2d0ad3	0.0026404157
141	0x3dbeaa61	0.09309841
142	0x3c592b79	0.013254994
143	0xbdeab937	-0.11461108
144	0xbe03aa8d	-0.12858029
145	0xbdfaa784	-0.12238982
146	0x3dca8ea2	0.09890486
147	0xbc6ebb73	-0.014571059
148	0x3e325338	0.17414558
149	0xbcc1737f	-0.023614643
150	0xbd827789	-0.06370456
151	0xbe2cfe27	-0.16893826
152	0xbdb50914	-0.08839622
153	0x3cfd7b9e	0.030942734
154	0x3e00360a	0.12520614
155	0xbd55ee45	-0.052229185
156	0xbcc858cb	-0.024456402
157	0x3c880dd2	0.016608153
158	0xbcd30762	-0.025760356
159	0xbdb7917f	-0.08963298
160	0x3b9eafad	0.0048427195
161	0xbd4c1274	-0.049822286
162	0x3c3b853b	0.011445339
163	0x3e09afce	0.1344597
164	0x3de5c1cd	0.11218605
165	0x3c91f6d2	0.017817888
166	0x3e042b7e	0.12907216
167	0xbcbb8eb9	-0.022895204
168	0x3d5e1c50	0.05422622
169	0xbb5a31cf	-0.0033293848
170	0x3e14c308	0.14527524
171	0x3dac7b61	0.0842197
172	0xbc7f8f06	-0.015598064
173	0xbe0b5d20	-0.13609743
174	0x3c9c88d3	0.019108212
175	0xbda455cd	-0.08024178
176	0xbd7470dd	-0.059677947
177	0x3d93120e	0.07181178
178	0xbd72b2c0	-0.0592525
179	0xbdde93d5	-0.108680405
180	0x3dcc7169	0.09982569
181	0x393a9c35	0.00017796534
182	0x3d829f0e	0.063779935
183	0xbd255456	-0.040363632
184	0xbdad4b17	-0.08461588
185	0xbe117790	-0.14205766
186	0x3c9c5e77	0.019088013
187	0x3dd53fbe	0.104125485
188	0xbbc7a559	-0.006092709
189	0xbde6a766	-0.112623975
190	0x3d56b2c3	0.052416574
191	0x3cd3c41f	0.025850354
192	0xbd4644ad	-0.048405338
193	0xbdf1af99	-0.11801071
194	0xbdbe2958	-0.092852294
195	0xbe0a2a36	-0.13492665
196	0xbd837708	-0.06419188
197	0x3d52116d	0.05128615
198	0x3d9d255e	0.07673143
199	0x3d1dfe2a	0.038572468
200	0xbd7acdee	-0.061231546
201	0x3c13273d	0.008981523
202	0xbdbbc063	-0.09167554
203	0xbd873595	-0.06602017
204	0xbd854caf	-0.06508767
205	0xbe111efd	-0.14171977
206	0x3de63927	0.1124137
207	0xbde58652	-0.1120726
208	0x3dd8732c	0.10568842
209	0xbdbc496a	-0.0919369
210	0xbd91615d	-0.07098649
211	0xbd5c0731	-0.053717796
212	0x3d4e0e91	0.05030686
213	0xbcb48b25	-0.022039006
214	0xbc81f675	-0.01586459
215	0x3d758c8c	0.05994849
216	0xbcf356af	-0.02970442
217	0x3bdeb2ed	0.006796232
218	0xbd8abe7c	-0.06774613
219	0x3cdaabe6	0.026693296
220	0x3da05639	0.07828946
221	0x3bb0c439	0.0053944853
222	0xbd64a6a0	-0.05582297
223	0xbdef2c09	-0.11678321
224	0x3b8bdde1	0.0042683934
225	0xbe2e1405	-0.16999824
226	0xbd6fd684	-0.058554187
227	0x3db1d1c4	0.08682588
228	0x3d8e218b	0.069399916
229	0x3e50dc15	0.20396455
230	0x3c94e420	0.018175185
231	0xbe000068	-0.12500155
232	0xbdb04d79	-0.08608527
233	0x3ce30624	0.027712889
234	0xbbe16697	-0.0068786847
235	0xbc70e0a5	-0.014701997
236	0xbd8d7022	-0.06906153
237	0xbd4756d5	-0.048666794
238	0xbd337ea2	-0.04382194
239	0xbe40c57e	-0.18825337
240	0xbc9ae09a	-0.018905926
241	0xbe1e9209	-0.15485395
242	0x3cd3fa14	0.025876082
243	0xbd38c26d	-0.045107294
244	0x3deb7131	0.11496199
245	0xbccea913	-0.025227105
246	0xbc625c0a	-0.013815889
247	0xbcc0ce9a	-0.023536015
248	0xbe01cd2a	-0.1267592
249	0x3c308c30	0.010775611
250	0x3d74f114	0.059800223
251	0xbe646d52	-0.22307327
252	0xbc194d67	-0.009356833
253	0xbd158c7d	-0.036510933
254	0x3ce18945	0.027531276
255	0xbc442715	-0.0119722085

sequential/conv2d_2/Conv2D f4 [64, 3, 3, 64]
0	0xbd470eea	-0.048598208
1	0x3e270ed4	0.1631425
2	0x3debf1e1	0.11520744
3	0xbdf433b0	-0.11923921
4	0x3ca6f5f2	0.020380948
5	0xbc4b369a	-0.012403155
6	0x3dd548a6	0.10414247
7	0xbdddd70c	-0.108320326
8	0x3dcc178b	0.09965428
9	0xbc74bd20	-0.014937669
10	0xbcb52771	-0.022113534
11	0x3de03be6	0.10948925
12	0x3d8b9d20	0.068170786
13	0xbd90ec97	-0.07076376
14	0xbd269421	-0.04066861
15	0x3caf7c5a	0.0214216
16	0xbd430478	-0.047611684
17	0x3d144c96	0.03620585
18	0x3d548914	0.05188854
19	0xbb70f62a	-0.003676782
20	0xbd7c0abb	-0.06153367
21	0xbd4d01d3	-0.050050568
22	0xbce9067e	-0.028445479
23	0x3d162f98	0.036666483
24	0x3d00cf6e	0.03144782
25	0xbdac1839	-0.084030576
26	0xbd865529	-0.06559212
27	0xbca8dc24	-0.020612784
28	0xbb3fa434	-0.002924216
29	0x3d985570	0.07438171
30	0xbd5a96fb	-0.053366642
31	0xbd49df0e	-0.049284987
32	0x3ca2b4ad	0.019861544
33	0x3d2962bd	0.04135393
34	0x3d91d926	0.07121496
35	0x3d4c60b1	0.0498969
36	0xbcfdf369	-0.030999856
37	0x3d2c5484	0.042072788
38	0x3df887a1	0.12135244
39	0x3d92a816	0.07160966
40	0x3c09dcd0	0.008414462
41	0xbdc29721	-0.09501482
42	0x3c792463	0.015206429
43	0x3e021173	0.12701969
44	0xbd9df8c7	-0.07713466
45	0x3e46216d	0.19348688
46	0x3db2c38d	0.087287046
47	0xbc46515f	-0.012104361
48	0x3d4d7f74	0.050170377
49	0xbbe2eda2	-0.0069253007
50	0xbbd7a872	-0.0065813595
51	0xbd8e78b8	-0.06956619
52	0xbd9e56bb	-0.07731386
53	0x3da9163e	0.082561955
54	0xbd1f3663	-0.038870227
55	0x3e1d6f61	0.15374519
56	0x3dcd57c5	0.10026506
57	0x3c89da47	0.016827716
58	0x3d2597d8	0.040428013
59	0xbd90ccf7	-0.07070344
60	0xbdf8c195	-0.12146298
61	0x3db86753	0.090040825
62	0x3d078f10	0.03309542
63	0x3cd426ef	0.025897471
64	0xbd510811	-0.051033083
65	0x3e295bc7	0.16538917
66	0x3cc0f295	0.023553172
67	0xbd9b835d	-0.07593415
68	0x3dd364bd	0.10321949
69	0xbd92f4b3	-0.07175579
70	0x3db2acf4	0.087243944
71	0x3cb90bae	0.022588577
72	0x3dbd98b4	0.092576414
73	0xbc4e62be	-0.012596784
74	0x3d4f2af1	0.05057806
75	0x3c177410	0.00924398
76	0xbd1c5732	-0.038169093
77	0xbcfdb5a0	-0.030970395
78	0x3da4e01e	0.080505595
79	0x3d042fbb	0.03227208
80	0xbb840a7a	-0.004029569
81	0xbb27d764	-0.002561056
82	0x3d5b9ec2	0.0536182
83	0x3d1a582c	0.037681744
84	0x3d883115	0.06649987
85	0x3d69ee43	0.05711199
86	0xbd8f9a1a	-0.070118144
87	0x3d463b1e	0.048396222
88	0x3cdde40d	0.027086282
89	0xbd57d551	-0.05269367
90	0x3d887108	0.06662184
91	0xbd37c184	-0.044862285
92	0xbca4f752	-0.020137463
93	0xbd961a0b	-0.07329186
94	0x3ddf7bdf	0.109122984
95	0xbdabc3a1	-0.08386923
96	0x3e02250c	0.12709445
97	0xbce4eba1	-0.027944388
98	0x3daa97b9	0.0832972
99	0x3dafb950	0.085802674
100	0xbe00b63e	-0.1256952
101	0x3e37e454	0.17958194
102	0x3e0f20ad	0.13977309
103	0x3d5670a6	0.052353524
104	0x3df0a7d6	0.11750762
105	0xbd1a0544	-0.037602678
106	0x3b6233aa	0.0034515657
107	0x3dba6495	0.09101216
108	0x3b7bb2e8	0.0038406197
109	0x3e302a9a	0.17203751
110	0x3b7747af	0.0037731936
111	0xbc56dd4a	-0.013114283
112	0xbd80e0c2	-0.06292869
113	0x3bced2cf	0.0063117514
114	0x3c02d8c9	0.007986256
115	0x3b3fdc5c	0.0029275632
116	0x3d0a3f9c	0.03375207
117	0x39229f9d	0.00015508985
118	0x3c8c2668	0.017108157
119	0xbd3826e3	-0.04495896
120	0x3c0c7563	0.008572909
121	0x3d5c4c1a	0.053783514
122	0x3a699df0	0.0008911779
123	0xbd79e7e8	-0.06101218
124	0xbda674d4	-0.08127752
125	0x3d82876f	0.06373488
126	0x3da5daa1	0.08098341
127	0xbd99484e	-0.07484494
128	0x3d96eec0	0.07369757
129	0x3d8f57f6	0.06999199
130	0x3bee1015	0.0072651007
131	0xbda55aa7	-0.08073931
132	0xbdaac563	-0.0833843
133	0xbd947cf3	-0.07250395
134	0x3d5a6fd5	0.053329308
135	0xbb8361d8	-0.0040094666
136	0x3d63c5df	0.055608626
137	0x3d2dfc9d	0.04247724
138	0x3d6bcedf	0.057570335
139	0x3ce8b2a7	0.0284055
140	0x3cba93b7	0.022775514
141	0x3cc55f2a	0.02409323
142	0xbcf2b2cf	-0.029626278
143	0xbd10776a	-0.035270132
144	0xbd5d86a4	-0.05408348
145	0xbd6b443d	-0.057438124
146	0x3d0a397c	0.033746228
147	0x3d309ad0	0.04311639
148	0xbe2977e4	-0.16549641
149	0xbd36ceb4	-0.04463072
150	0xbb587598	-0.0033029076
151	0xbadc25a1	-0.0016795882
152	0xbce294ce	-0.027658846
153	0xbcc68d32	-0.024237249
154	0x3ac53d0b	0.00150481
155	0x3e39ae8e	0.18132994
156	0xbd13c650	-0.036077797
157	0x3e14114e	0.14459726
158	0x3d8c0404	0.068367034
159	0x3db8c9dd	0.09022877
160	0x3c2173c8	0.009854265
161	0xbd8021c8	-0.06256443
162	0x3dae22d7	0.08502739
163	0xbd5eeabb	-0.054423075
164	0x3c893107	0.01674701
165	0xbccc5a55	-0.024945417
166	0x3e2de458	0.16981637
167	0x3d3c767b	0.04601143
168	0x3b860df2	0.004091018
169	0x3bf8d3ae	0.0075935936
170	0x3d02cdb7	0.031934466
171	0xbe263c5f	-0.16233967
172	0xbe2889c1	-0.16458799
173	0x3d8bd7d2	0.06828274
174	0xbd7cad5c	-0.061688766
175	0xbd5bf8ed	-0.05370419
176	0x3d81dd9b	0.06341096
177	0xbbc4ce60	-0.006006047
178	0x3e175f52	0.14782456
179	0xbbb1a745	-0.0054215514
180	0xbdb03a78	-0.08604902
181	0x3ccffeb8	0.025390014
182	0xbd6fef4b	-0.058577817
183	0x3dc03cae	0.09386574
184	0xbbe4a087	-0.006977144
185	0x3e0f415f	0.13989781
186	0xbd517fcc	-0.051147267
187	0x3ccc950a	0.024973411
188	0xbc3e4d73	-0.011615145
189	0x3d98d3f2	0.074623
190	0xbe171d19	-0.14757194
191	0x3cc9d126	0.024635863
192	0x3cbea174	0.023270346
193	0x3d82a820	0.063797235
194	0xbcc1ba8d	-0.023648525
195	0x3dcae7c0	0.09907484
196	0xbda5f94b	-0.081041895
197	0x3ce5780e	0.028011348
198	0xbd6bb4d3	-0.057545494
199	0xbc819a3d	-0.015820617
200	0xbda59e39	-0.08086819
201	0x3dc899a7	0.09794932
202	0xbe07c00b	-0.13256852
203	0x3d5a18b3	0.05324621
204	0xbdb538ea	-0.08848746
205	0xbcb5595a	-0.022137333
206	0x3e11fd29	0.14256729
207	0x3e26c48e	0.16285917
208	0x3d7ade1f	0.061246987
209	0xbd9200a0	-0.071290255
210	0xbc194c71	-0.009356604
211	0x3d2135c9	0.039357934
212	0x3da905b0	0.08253038
213	0x3badcbfa	0.005303857
214	0x3dd75a25	0.105152406
215	0x3d608f40	0.054824114
216	0x3da9567f	0.08268451
217	0x3d6964fc	0.05698107
218	0xbdc50469	-0.09619982
219	0xbcfbcdba	-0.030737747
220	0x3bf43424	0.0074525047
221	0x3da1e60a	0.079052046
222	0x3c878018	0.016540572
223	0xbc73df4a	-0.014884779
224	0xbdac159f	-0.084025614
225	0x3d2c6532	0.042088695
226	0x3caf46ff	0.021396158
227	0xbda7ada8	-0.08187419
228	0xbd7ba451	-0.061436
229	0xbd23d893	-0.040001463
230	0xbd26416e	-0.040589742
231	0x3d8b1e7e	0.06792925
232	0xbc19e3a6	-0.0093926545
233	0x3d1777a4	0.036979333
234	0xbbb77d91	-0.0055996855
235	0xbceb5c7d	-0.028730625
236	0xbddc040d	-0.1074296
237	0xbdd87b6e	-0.10570417
238	0x3c8f4ea7	0.017493559
239	0xbd59127d	-0.052996147
240	0xba11e293	-0.0005565073
241	0xbd9dbb86	-0.07701783
242	0x3ce76732	0.02824745
243	0x3d5208d4	0.05127795
244	0xbdb9e5a6	-0.09077005
245	0xbd88441a	-0.06653614
246	0x3cb70253	0.022339975
247	0x3cbeb8db	0.023281505
248	0xbda671f5	-0.08127204
249	0xbd61687f	-0.055031296
250	0x3bcb017e	0.0061952462
251	0x3b852bd8	0.0040640645
252	0x3d5429bc	0.051797614
253	0xbcb6142f	-0.022226421
254	0x3c923f6a	0.017852504
255	0xbd4f2b00	-0.050578117

sequential/conv2d_1/BiasAdd;sequential/conv2d_2/Conv2D;sequential/conv2d_1/Conv2D;sequential/conv2d_1/BiasAdd/ReadVariableOp f4 [64]
0	0xbdba63ef	-0.09101092
1	0xbe23ee58	-0.1600889
2	0xbd3228b0	-0.043495834
3	0xbde094c6	-0.10965876
4	0x3d2f8b0c	0.042857215
5	0xbd8082d9	-0.06274957
6	0x3d28df37	0.0412285
7	0xbc9dbf03	-0.01925612
8	0x3d57a292	0.052645274
9	0xbe044ccf	-0.12919925
10	0xbddc91c4	-0.1076999
11	0xbde38bc9	-0.11110646
12	0x3de097bc	0.10966441
13	0xbdb4b9d3	-0.08824506
14	0xbdd655e8	-0.10465604
15	0xbe052468	-0.13002169
16	0xbcf43bca	-0.029813666
17	0xbd9762ee	-0.07391916
18	0xbba297f0	-0.00496196
19	0x3dd1fdad	0.10253463
20	0xbe045732	-0.12923887
21	0xbd47fdba	-0.048825957
22	0xbe24e01e	-0.16101119
23	0xbc92d697	-0.01792459
24	0xbe4b46e8	-0.19851267
25	0xbdb502f5	-0.08838455
26	0xbda7dac5	-0.08196024
27	0x3ce8745c	0.028375797
28	0xbde5940d	-0.11209879
29	0xbd2a91e2	-0.04164303
30	0xbc89f347	-0.016839636
31	0x3d159376	0.036517583
32	0xbd738c2d	-0.059459854
33	0xbe1e8bf7	-0.1548308
34	0xbdf45665	-0.11930541
35	0x3d6af474	0.057362035
36	0xbd85e875	-0.06538478
37	0xbde71fb9	-0.112853475
38	0x3d912428	0.070869744
39	0xbe3e4a6d	-0.18583079
40	0x3c6a920b	0.014317046
41	0xbe119fdf	-0.14221142
42	0x3d3a7576	0.045522176
43	0xbd03a4dc	-0.032139644
44	0xbb315eb6	-0.0027064509
45	0xbd229013	-0.03968818
46	0xbcab6299	-0.020921038
47	0xbd81fe2f	-0.0634731
48	0x3d8d1c5b	0.06890174
49	0x3cea05b8	0.02856718
50	0xbd858ad1	-0.06520618
51	0xbd555ae5	-0.052088637
52	0x3ce3ecaf	0.02782282
53	0xbdbe8e49	-0.093044825
54	0xbdd5258b	-0.104075514
55	0xbe050382	-0.1298962
56	0xbdbc984f	-0.09208738
57	0x3b8532c0	0.0040648878
58	0xbc34e461	-0.011040778
59	0xbd43579c	-0.047690973
60	0xbd4bb4b0	-0.049732864
61	0xbd976d16	-0.07393853
62	0xbd8985dc	-0.06714985
63	0xbd09186f	-0.033470567

sequential/conv2d_2/BiasAdd;sequential/conv2d_2/Conv2D;sequential/conv2d_2/BiasAdd/ReadVariableOp f4 [64]
0	0xbe1159c0	-0.14194393
1	0xbd92de45	-0.07171301
2	0xbd79ed26	-0.061017178
3	0xbd3b536e	-0.04573386
4	0xbdcbdf6c	-0.09954724
5	0xbdc72e11	-0.09725583
6	0xbd650a2b	-0.0559179
7	0xbde5f371	-0.112280734
8	0xbd8f1dd5	-0.06988112
9	0xbd9a3e2b	-0.07531389
10	0xbdd0f053	-0.10202088
11	0xbdc76f7d	-0.097380616
12	0xbd577fae	-0.052612
13	0xbd5c79d2	-0.053827114
14	0xbd65491f	-0.055977937
15	0xbdba7920	-0.09105134
16	0xbde6951e	-0.112589106
17	0x3db6c97d	0.089251496
18	0xbd48620c	-0.04892163
19	0xbdf5916a	-0.11990626
20	0xbde80dc9	-0.11330754
21	0xbe272a9b	-0.16324846
22	0xbcf27a5f	-0.029599367
23	0xbddc1a2f	-0.107471816
24	0xbd274c52	-0.04084427
25	0xbd1a4c42	-0.03767038
26	0xbde48465	-0.11158065
27	0xbdce58a0	-0.100754976
28	0xbd907b5b	-0.07054778
29	0xbddda4a8	-0.10822421
30	0xbc44f8aa	-0.012022177
31	0xbe077237	-0.13227163
32	0xbd3a6a33	-0.045511436
33	0xbbf4e158	-0.007473152
34	0xbdba20c3	-0.0908828
35	0xbdb787ce	-0.089614496
36	0xbdbe5c02	-0.09294893
37	0xbccd14b1	-0.02503428
38	0xbdadc12e	-0.08484112
39	0xbd736d40	-0.05943036
40	0xbdae6d3e	-0.0851693
41	0x3a43717f	0.0007455572
42	0xbdc09c7f	-0.09404849
43	0xbdb43c36	-0.08800547
44	0xbd5edf1c	-0.054411992
45	0xbc98a596	-0.018633645
46	0xbe0dc3f1	-0.13844277
47	0xbd9ad099	-0.07559318
48	0xbd4ed935	-0.050500114
49	0xbd66d9bc	-0.05635999
50	0xbd2117b9	-0.039329264
51	0xbdad2ce0	-0.08455825
52	0xbde78040	-0.113037586
53	0xbdf0a122	-0.11749484
54	0xbd9f6eee	-0.0778483
55	0xbd1877bc	-0.037223563
56	0xbe1bda4c	-0.15219992
57	0xbcc3109d	-0.023811633
58	0xbb9e0f45	-0.0048235976
59	0xbdbde801	-0.09272767
60	0xbd78445d	-0.06061207
61	0xbd3bd8b1	-0.04586095
62	0xbd89cafc	-0.06728169
63	0xbdb3b49f	-0.08774685
